data.pth (torch, 6271 bytes, 6 tensors)

l1.weight f4 [8, 82]
00000000: 445b 1cbb 721d 2abd d43a 64bc 58e9 aabd
00000010: 2ee4 89bc b083 03bd 4404 44bd cb26 c9bd
00000020: 138e debc af57 dfbd 81b8 7b3c 4af1 633c
00000030: 8327 d6b8 f42f 31bd 39ac c83c d8f9 c1bc
00000040: f0d7 dcbd a22e a43d 977e be3c ca10 bf3d
00000050: 53f6 c13b 1648 cdbd 93cc bdbc 3642 5a3c
00000060: 1367 b23d d5ab b0bd 9723 993d cb9a eabc
00000070: 464d b03d 8fd5 8abd c8a1 93bd dba2 53bd
00000080: 7682 833c fa84 87bd 9f32 363d 9ef0 cabd
00000090: 942b 0cbd cad1 a2bd 3dda ffbc f536 b4bd
000000a0: f5d5 ea3c f311 d33c e569 5bbb c96a 9f3d
000000b0: 5b71 a4bc 7550 a8bd 2f83 b1bd fbe8 9d3c
000000c0: ae09 9cbc e3ad d6bd c117 49bd 802d 4d3d
000000d0: 308f ac3d 935e 15bd 888d 033d 9f08 ba3d
000000e0: 07d9 67bc 94fd 423d 3a64 b9bd 8400 4fbd
000000f0: 0cf9 81bd ce92 0abb 0abe c3bd d8e0 09bd
00000100: 0a32 733c ac93 8fbc a241 e13d b742 6ebd
00000110: b4d6 5abd c890 99bd d05c 68bc 15c3 f23c
00000120: f045 cfbd 9eed d5bc 0d96 983d 90bb 803d
00000130: 62db 17bd db48 7d3d f7d5 8fbd 80ee ea3c
00000140: c164 c03d 105f e1bb e345 de3d c391 eabd
00000150: 548c 8dbd 0f83 0d3f ac45 8dbe 3ab2 363e
00000160: 9411 1f3f 0866 0f3f 8c8d 023e 65c5 763e
00000170: 9f23 2bbe 1f98 b5be 39f6 013f f278 51bd
00000180: 3535 2bbe ae7c 823e cdfc 303e bd22 2a3f
00000190: 7fc7 a5be 0f71 04bf d252 42be 7736 de3e
000001a0: fcf6 503e 3726 3abe 5dda ab3e cbea 263e
000001b0: 4e2d 723e 28e2 20bd f4a3 023f cf38 59be
000001c0: 9912 babd 4c03 86be 6108 81be b46d 61be
000001d0: 4185 55be f1f3 40be b87d 59be af6a c1be
000001e0: 30b4 8abd f82f 213f f43a 9ebd 84e0 0a3e
000001f0: 1a69 f43e 8f59 d13e 3181 043f 0074 e0be
00000200: 944c 2d3e 9f64 923e 778b da3e 915c a2be
00000210: ee87 2abe 8a66 bdbe 685f 503e e244 fc3e
00000220: a2cd ae3e eb99 403e 7ddd de3e 5b28 113f
00000230: 3559 93be b000 0d3f f5c1 833e 95ba 143d
00000240: b9b2 563e 923a 8d3e 668f d2bd dcd2 953e
00000250: e3df 783d def4 103f f29e a2be 4bde e5bd
00000260: 4438 8c3e e2fa d73e fbca ca3e c532 17bf
00000270: fcc7 003f bb08 b13e 3e91 d63c 2906 2abd
00000280: 96b7 113e 88d1 41be c3e0 29be ef12 eabe
00000290: b40c e1bd 6660 073f e980 913e 749c 18bf
000002a0: 6857 103e bff9 7bbd d135 5abe b1b9 97be
000002b0: b9be 343e e724 11be 9c09 a23d 2e39 ff3e
000002c0: 7d51 ecbc 2924 973d bb5a a23d 64fd f4bd
000002d0: 8279 cbbd df4a 8ebe 36ff 083d 01e6 7b3e
000002e0: 7df0 133f b095 96be 358c 16bd 7117 e73d
000002f0: d9da 86be 4075 b43d d319 9dbe e9a5 1a3f
00000300: 6664 b2be efda 3d3f 3b69 053f e4b0 193f
00000310: 26eb 1d3f 1e2b d43d 4e80 bf3e 5d64 f63d
00000320: 6f66 d63e fc8e 793e d688 c5be 7e54 c8be
00000330: 720f f03e 4b80 20be d748 943b 1ac8 b9be
00000340: 7bf5 a1be 8810 893e 8ca6 22bc d7ae 09be
00000350: 4b78 75be 48bd 1f3e 49a8 5f3e 377b a03e
00000360: e8f7 88bd 63ed 81be fd08 44be 6566 30be
00000370: 33a6 d8be 4365 bfbe 9414 633e be4f 4c3d
00000380: 8775 e33c 62f1 0abf 3ac8 86bd e691 01be
00000390: 6a73 363e d0cb e8bd 73a6 653d 3282 9d3c
000003a0: 7764 633f b667 113f 74ef 8a3d 49cd 843d
000003b0: 2b4b e73c d394 8b3e 1508 76bd 593f 17be
000003c0: ee63 a7bd 5a65 ff3d 5c0d 59bd f858 313e
000003d0: af69 333e f2df ca3e 9e73 dbbd 496a b73e
000003e0: 2f1d 8e3e 8960 ed3e f999 b53c 14dc 0c3e
000003f0: 63b7 ffbd 1186 ea3e 8d76 963d 32ab 523e
-0.002385811 -0.041531987 -0.013930041 -0.08345288 -0.016832437 -0.03210801 -0.04785563 -0.09821852
-0.027167356 -0.10905396 0.015363813 0.013912508 -0.00010211675 -0.043258622 0.024496185 -0.023678705
-0.10783374 0.08016707 0.023253722 0.09329374 0.0059192567 -0.10023515 -0.023168838 0.01332145
0.08711066 -0.08626524 0.07477491 -0.028638264 0.08608489 -0.06779014 -0.07208592 -0.051668983
0.01605342 -0.0661716 0.04448187 -0.09909175 -0.034221247 -0.0795017 -0.031231994 -0.08799545
0.028666476 0.025765395 -0.0033479866 0.077840395 -0.020073583 -0.08218471 -0.086675994 0.019276133
-0.019047584 -0.10482385 -0.04909492 0.05009222 0.08425748 -0.036467146 0.032117397 0.090836756
-0.014150864 0.047605112 -0.0905232 -0.0505376 -0.0634633 -0.0021144631 -0.095577314 -0.033661693
0.014843473 -0.01752647 0.109988466 -0.058169093 -0.053427413 -0.07498318 -0.0141822845 0.029634038
-0.101207614 -0.026114281 0.07450495 0.06285775 -0.037074454 0.06183706 -0.070232324 0.028678179
0.09394217 -0.0068777874 0.108531736 -0.11453583 -0.06911531 0.55278105 -0.27592218 0.17841426
0.621362 0.5601506 0.12749308 0.24098738 -0.16712807 -0.35467622 0.5076633 -0.051140733
-0.16719516 0.25485748 0.17283936 0.66459256 -0.32378766 -0.51735014 -0.18976906 0.43400928
0.20406717 -0.1817864 0.33565035 0.16300504 0.23650095 -0.03927818 0.5103142 -0.21213077
-0.090855785 -0.2617439 -0.25201705 -0.22014505 -0.20851614 -0.18843056 -0.21239364 -0.37776706
-0.06772649 0.6296382 -0.07726088 0.13562208 0.47736436 0.4088864 0.5175963 -0.438385
0.16923743 0.28592393 0.42684528 -0.31711248 -0.16653416 -0.36992294 0.20348895 0.49271303
0.3414126 0.18808715 0.43528357 0.567022 -0.28778997 0.55079174 0.25733915 0.03631075
0.20966615 0.27583748 -0.10281257 0.29262435 0.06076039 0.5662364 -0.3176189 -0.1122404
0.27386677 0.42183596 0.39607987 -0.59061843 0.5030515 0.34576973 0.026192304 -0.04150978
0.14230189 -0.18927586 -0.16589646 -0.4571757 -0.10988751 0.5288147 0.28418663 -0.5961373
0.14095843 -0.061517473 -0.21309592 -0.2963386 0.1765088 -0.14174233 0.07911989 0.49848312
-0.02884745 0.07379944 0.07927462 -0.11962393 -0.09935285 -0.27791497 0.033446513 0.24599458
0.5778883 -0.29411077 -0.036754806 0.11283768 -0.26338843 0.08811426 -0.30683765 0.6040941
-0.34842223 0.7416219 0.52113694 0.6003554 0.61686933 0.103597865 0.37402576 0.120308615
0.41875026 0.2437095 -0.3858096 -0.39126962 0.46886784 -0.1567394 0.0045252847 -0.36285478
-0.316326 0.26770425 -0.009927403 -0.13445602 -0.2397167 0.15599549 0.2184154 0.31344005
-0.06687909 -0.25376424 -0.19144054 -0.1722656 -0.423143 -0.37381944 0.22175819 0.049880736
0.027766002 -0.5427457 -0.06581159 -0.12653312 0.17817464 -0.11366999 0.05606694 0.019227121
0.8882517 0.56798875 0.06783953 0.064844675 0.028234085 0.2726198 -0.0600663 -0.14770259
-0.08173357 0.12470503 -0.052991256 0.17319095 0.17520784 0.39623982 -0.107154116 0.35823277
0.2775664 0.46362713 0.022168146 0.13755828 -0.1248615 0.4580541 0.073468305 0.20573118

l1.bias f4 [8]
00000000: 0f7d c0bd dea2 a23e 46ac 5f3f acd3 fe3e
00000010: 6ee7 833e 7938 a93e 7454 ba3e 0e1c 373f
-0.09398853 0.31764883 0.87372243 0.49770868 0.25762504 0.33050898 0.36392558 0.71527183

l2.weight f4 [8, 8]
00000000: 60b1 96be f4a5 503f 1a06 bb3e 2774 1ebe
00000010: 6abb 3dbf 0d00 0a3f 5b07 75bf f0d9 ae3f
00000020: bc98 ca3c 4c49 2bbf 9858 8b3f 45c5 733f
00000030: 6e14 233f 79c6 6a3f ba20 01bf 784a 90be
00000040: e5a1 893e 1308 5a3e cdfe b53d 658b 773f
00000050: 7b6a 5b3e dfdd 923f d61e 5fbf cdc3 f53d
00000060: b8c0 ae3e be17 583f 28f3 38bf 3dd5 573f
00000070: 51dc 0b3f 7287 023f 6d4e 243f cd67 81bd
00000080: 67f4 01be ec13 2e3f 39fc e33e 951d 7f3f
00000090: 52a2 6a3e c15b 5cbf 4d0a 8e3f 5e0a 3bbf
000000a0: 8595 843e 0fed 133f 471c 113f b383 e43e
000000b0: 3de7 23bf 2abb c9be 934b 3fbe 0a55 873f
000000c0: b192 0b3e 87a3 013f d033 a13e 0fbd d03e
000000d0: 70c0 2dbf e019 813e fee4 1cbf 61c7 853f
000000e0: 04fb 833e 6ab0 46bf 449c a13f cd30 4c3f
000000f0: f084 02bf fdff 433e c3bd 2c3d 4e49 d7be
-0.294322 0.81503224 0.36528093 -0.15473996 -0.74114096 0.5390633 -0.9571435 1.3660259
0.024731033 -0.6690872 1.0886412 0.95222884 0.6370305 0.91709095 -0.5044056 -0.28181815
0.26881328 0.21292143 0.0888649 0.96697074 0.21427338 1.147396 -0.87156427 0.12000237
0.34131408 0.8441123 -0.72246027 0.8430975 0.5463305 0.50987923 0.6418217 -0.063186266
-0.12690888 0.6799915 0.44528368 0.99654514 0.22913483 -0.86077505 1.1096894 -0.73062694
0.25895324 0.577836 0.5668377 0.4463173 -0.64024717 -0.39400607 -0.18681173 1.0572827
0.13630177 0.5064015 0.31484842 0.4076924 -0.6787176 0.25215054 -0.61286914 1.0451471
0.25777447 -0.77612936 1.2625813 0.79761964 -0.50984097 0.1914062 0.04217316 -0.42048115

l2.bias f4 [8]
00000000: a353 f33e 8762 9d3e 88db dabe e505 63be
00000010: f88c 943e 24b0 2a3f daa3 80be 99f8 143f
0.47524747 0.30739233 -0.42745614 -0.22170217 0.290138 0.6667502 -0.2512501 0.5819183

l3.weight f4 [7, 8]
00000000: 3a02 09bf fb09 9cbf 2aad 8ebf 180d ae3e
00000010: 4884 3c3f 7524 bbbe 2825 3fbf 499e e1be
00000020: 65d4 48bf bb18 b53c 52b7 7e3e df27 d43e
00000030: 6467 1abc 9a3f 79bf ce01 2bbf 653b 73bf
00000040: f8ae 5cbf cb88 413f 1196 283f 3346 7ebe
00000050: 73c3 8dbf 603b 7ebf c708 78bf df57 463e
00000060: 1cb7 ad3f 4287 97bf 8621 b1bf b5ba 7ebf
00000070: a72a a7bf 5589 753f c8e5 d63e 2a2b 61bf
00000080: 175a a3bf 0b5e be3e 2241 92bf 479b 6fbf
00000090: 4ff6 043f deda c13e 3fbb 0fbf fe31 843f
000000a0: 702c 8dbd 3677 2abf bcae 173f 09d6 803e
000000b0: 6414 0ebf 7365 353e 8dd3 d53e 5b66 05bf
000000c0: d5b2 b03d f0ee 183e a74b 943e fb16 9dbf
000000d0: 6023 87bf 371b be3e 5109 d23e 5b5d 223f
-0.5351902 -1.2190546 -1.1146595 0.33994365 0.73639345 -0.36551252 -0.7466607 -0.44066074
-0.7844909 0.022106519 0.24874619 0.4143667 -0.009424064 -0.97362673 -0.6679963 -0.95012504
-0.8620448 0.75599355 0.65853983 -0.24831466 -1.1075271 -0.9930935 -0.96888393 0.19369458
1.3571506 -1.1838152 -1.3838356 -0.9950364 -1.3059891 0.9591268 0.41972184 -0.8795649
-1.2761868 0.37181124 -1.1426127 -0.9359631 0.5193834 0.37862295 -0.5614509 1.0327756
-0.068932414 -0.6658815 0.59251 0.25163296 -0.55499864 0.17714481 0.41762963 -0.5210931
0.086278595 0.14934897 0.28963968 -1.2272638 -1.055767 0.37130138 0.41022733 0.634237

l3.bias f4 [7]
00000000: 541f bb3e 72ae ba3d 9248 e83d 8697 a23e
00000010: c78e 253f 305f fbbe f2b8 c7be
0.3654734 0.09115304 0.11341967 0.31756228 0.64670986 -0.4909606 -0.3900829
